model.pt (torch_old, 326183 bytes, 6 tensors)

lstm.weight_ih_l0 f4 [400, 100]
000000 3e 6b a9 3d ae b0 41 bd 64 66 af bd 1a f4 9b 3e
       0.08272408 -0.047287636 -0.08564451 0.30459672
000010 75 bd 0a be 55 95 a3 3e a5 bb b2 bc c5 4e d3 bd
       -0.13548835 0.3194987 -0.021817992 -0.103177585
000020 c3 62 d8 3d 3b 3a 1d 3d ff a9 fe bc b1 6a ea bc
       0.10565712 0.03838561 -0.03108692 -0.028615328
000030 8b 27 29 3e 03 1f bf bc b3 40 66 3e e6 b0 0d be
       0.1651899 -0.023330217 0.22485618 -0.13837013
000040 18 f6 9c bd bf 62 74 be 25 f2 1c 3e 08 28 19 3e
       -0.07664126 -0.23865794 0.15326746 0.14956677
000050 6c 06 2c be fd 68 07 bd bd 38 e7 bd e2 8f a4 be
       -0.16799325 -0.03305911 -0.11290119 -0.32141024
000060 7f 03 0b 3d 33 b3 00 be 9e 7c 26 3e ae 4c ac 3b
       0.03393888 -0.12568359 0.16258475 0.0052581644
000070 e2 4b 83 3c d0 90 3f bd 2b 9c 14 be 04 b7 75 3d
       0.016027395 -0.046768963 -0.14512698 0.05998899
000080 c7 45 60 3b 8f 05 81 bd 64 0f 7e be f6 a0 63 be
       0.0034221278 -0.06299888 -0.24810559 -0.2222937
000090 c3 fa c3 bc ee 31 12 3e 93 c4 7d 3d 6f c9 c1 bc
       -0.023923283 0.14276859 0.061955046 -0.023655621
0000a0 cd 0f de 3d 22 2a 9a be 87 d3 c7 3d 24 b5 11 3d
       0.108428575 -0.3011027 0.097571425 0.03557314
0000b0 78 72 ba 3d fc d0 94 bb 7c e9 08 3d 7c 91 ae bd
       0.091038644 -0.0045415144 0.033425793 -0.08523843
0000c0 22 bb 92 3d b6 a2 82 3c e4 2d a5 bd fd 07 52 3e
       0.07164599 0.015946727 -0.080653936 0.2051086
0000d0 a5 25 7a 3e 3a 0d f4 bd f4 4d c5 bc 20 be 1c 3e
       0.24428423 -0.11916585 -0.024085023 0.15306902
0000e0 8a 6d 45 be df f9 1d bd e7 d6 de 3d 69 93 ea 3c
       -0.19280067 -0.038568374 0.10880833 0.028634744
0000f0 66 0c fb 3d ca 82 0c 3c 9e 13 b8 3e d5 e1 be 3d
       0.12258224 0.008576104 0.35952467 0.09320418
000100 52 96 8e be 86 9c 0e 3d 11 7b 23 bd 0b 1c 37 3d
       -0.2784906 0.03481724 -0.039912287 0.04470448
000110 92 d0 ac be ac 60 70 3d 05 8d b3 3c 8b 44 28 bd
       -0.33752877 0.058685943 0.02191783 -0.041080993
000120 10 e5 a0 3d 27 1a 4b 3e be 79 3c 3d d4 24 ab 3c
       0.0785619 0.19834195 0.04601454 0.020891584
000130 f9 fa 80 bd 5d b4 2c 3d eb c5 ad bd 45 96 69 3e
       -0.06297869 0.042164195 -0.084850155 0.2281123
000140 b5 ed 77 bc 40 13 08 be 64 af 9e 3d 63 47 0f 3e
       -0.015132357 -0.13288593 0.07748297 0.13992076
000150 97 2f 93 3d f6 8e b6 3d ef 78 f5 3c 4b 73 37 3d
       0.071868114 0.089139864 0.029964892 0.044787686
000160 a6 54 08 be cb d0 2d be e8 b9 36 3c 70 d0 89 bd
       -0.13313541 -0.1697418 0.011152722 -0.067292094
000170 e9 1d 73 3e e9 b3 c9 3d 16 99 38 be 21 dc 6c be
       0.23741879 0.09848768 -0.18027148 -0.23130848
000180 d3 b0 d0 bd e0 29 01 bd 3f 53 8e bc e5 13 43 bd
       -0.101899765 -0.031534076 -0.01737368 -0.047626395
000190 b5 66 21 3d 5c 59 97 bd 9e 04 05 3e 4e 42 9f 3d
       0.03940459 -0.07390091 0.12990043 0.077763185
0001a0 20 07 0b b9 79 75 e1 bd f4 90 17 3e dc 1d cc bd
       -0.00013258727 -0.11008734 0.14801389 -0.09966633
0001b0 57 79 31 3d f4 de a4 3b 41 3b 43 3d e3 81 a3 3d
       0.04332861 0.005031461 0.04766393 0.07983758
0001c0 bc 69 ca 3d 30 d7 8d bd d4 95 e1 bd a9 7f 80 3d
       0.098834485 -0.069258094 -0.110149056 0.06274349
0001d0 30 8b 9b 3d 1c d2 bf 3d 9c 20 12 be 4b 12 25 3d
       0.07594907 0.09366247 -0.14270252 0.04030065
0001e0 1f eb 33 bd 4d 6d 96 bb ab 22 eb 3d 71 9e cc bd
       -0.0439254 -0.0045906664 0.11481222 -0.09991158
0001f0 5a ee 18 3e c7 8e b0 bd 90 d6 ef bd c9 4a f1 bc
       0.14934674 -0.086209826 -0.117108464 -0.029454606
000200 71 8d f6 3d 1d c8 f4 3c 4a d3 b3 bd 23 f1 cd 3d
       0.120386966 0.029880578 -0.087805346 0.10055759
000210 c0 c0 0e 3e fd 82 a2 3d 14 a5 52 3d 2e 03 87 3d
       0.13940716 0.0793514 0.051426962 0.06592403
000220 fd 2e 0d 3e bd 47 56 bd 3a a2 1d 3c de b2 17 be
       0.13787456 -0.05231451 0.009621197 -0.14814326
000230 45 77 71 3d 07 86 13 bd 3b c3 23 bd 1f 4f 02 bd
       0.058951635 -0.03601649 -0.03998111 -0.031813737
000240 03 4f bd 3d 04 5a 0c 3d a3 a2 c3 3d cb 8f a1 bb
       0.09243586 0.034265533 0.09552505 -0.0049304715
000250 e4 a4 19 3d e2 e2 33 3d 73 6a 85 bd 7c 67 ac bc
       0.037510768 0.043917544 -0.06514444 -0.021045439
000260 9b bd f6 bc 9f bf 61 3d e2 90 c9 bd f8 fe 55 bd
       -0.030119708 0.055114385 -0.09842087 -0.05224511
000270 3d 2b 55 bd c0 cf 2d bd a8 23 d1 3d f0 36 f3 bd
       -0.05204319 -0.042434454 0.10211879 -0.11875713
000280 32 56 3d be 7c 5e 72 3d 4c 0a 88 3d bd a6 0f 3e
       -0.18489912 0.05917214 0.06642589 0.1402845
000290 0c a2 70 bd e7 ed ee b9 a3 a6 43 bb 46 2a 5b 3d
       -0.05874829 -0.00045572149 -0.0029853962 0.053507112
0002a0 55 0b fa bd 24 9a a1 3c 7f c5 43 bd 18 6a bc ba
       -0.12209193 0.01972682 -0.04779577 -0.001437488
0002b0 99 1a e1 3d 66 6c 2c 3d c3 80 c4 3d e6 73 b6 3d
       0.10991401 0.042095564 0.09594872 0.089088246
0002c0 73 71 0b 3e 9d 1f 03 3d a9 e2 3f bc 40 2e d8 bb
       0.13617496 0.03201257 -0.011711755 -0.0065973103
0002d0 68 02 0d bd e0 78 a8 bd 54 ce 57 bd 08 6b 2b bd
       -0.034426123 -0.0822618 -0.052687004 -0.04185012
0002e0 49 7b 95 bd 72 82 e4 3d b1 90 cc bd 43 d2 0e be
       -0.072989054 0.11157693 -0.09988535 -0.13947396
0002f0 ee 02 a5 bb da 4e 63 bd 3a f3 ed 3d 38 64 87 bd
       -0.0050357496 -0.05549512 0.116186574 -0.06610912
000300 61 39 2a bd a9 58 9e bc d7 1e 03 3e 35 1f c9 bb
       -0.041558627 -0.019329386 0.12804733 -0.0061377534
000310 37 5e 6d 3c 5c 33 2f 3e 4e b0 35 3e 2d ff 78 bd
       0.014487795 0.17109436 0.17743036 -0.06079023
000320 eb b6 db 3b a4 2f d1 bd b3 e8 8c 3c d3 fc e6 bc
       0.006705155 -0.10214165 0.017200803 -0.028196728
000330 b6 79 93 3d 05 2d db 3c 16 b5 8a bc 26 89 09 bd
       0.07200949 0.026754865 -0.016932052 -0.03357806
000340 bd 59 e3 3c 2c 2f ce 3b d3 94 29 bd 57 61 be 3c
       0.027752751 0.0062922444 -0.041401695 0.023239775
000350 4d 4d f0 bc f2 44 5a 3d 7f 9a 34 3d 41 3e 0a 3e
       -0.029333735 0.053288408 0.04409265 0.1350031
000360 63 8b 6d 3e de d3 89 bd 16 7c 7c bd 7f d3 ab 3d
       0.23197703 -0.067298636 -0.061641775 0.08389949
000370 14 41 c3 bd 3d bf 16 3e 21 7d 24 bd 4e d3 a9 bd
       -0.09533897 0.14721389 -0.040158395 -0.08292256
000380 73 a6 84 3c a9 13 16 be e9 f8 e4 ba 2e 2f bf 3b
       0.01619265 -0.14655937 -0.00174692 0.0058344817
000390 9a ca 57 3d 3d 84 54 3c 1d 61 8a 3d 29 15 f4 bd
       0.05268345 0.012970981 0.06756804 -0.119180985
0003a0 2c 35 00 3e 70 c9 3f 3d cc 67 8a bd d6 de b6 bd
       0.12520283 0.046822965 -0.06758079 -0.08929221
0003b0 b7 95 90 bd 5f b9 d6 ba dc ea 87 3d ec e4 96 bc
       -0.07059806 -0.0016382149 0.06636593 -0.018419705
0003c0 22 17 e3 bc f6 bc e8 3c c8 21 2f bc 23 0f 26 bd
       -0.027720992 0.028410416 -0.010689206 -0.04054178
0003d0 b0 db 1e bd a7 d4 9f bc 91 21 b6 bd ea ca cf 3a
       -0.03878373 -0.01951058 -0.08893121 0.001585332
0003e0 a3 9d d3 bd ad 38 ea 3d c7 ad 35 3e c5 eb 44 bd
       -0.10332801 0.11436591 0.17742072 -0.04807641
0003f0 7f 83 8d 3b f4 a6 d3 3d 76 0e f6 3b b7 94 01 bd
       0.004318654 0.10334578 0.007509048 -0.031635966

lstm.weight_hh_l0 f4 [400, 100]
000000 c6 10 f8 3d 57 75 9d 3d a1 ba 5d 3d a7 49 10 bc
       0.12112574 0.076883964 0.05413306 -0.008806623
000010 06 7a dc 3d b7 43 6e bd e2 e0 46 bb 85 7e 2f bd
       0.107654616 -0.058170047 -0.0030346443 -0.042845268
000020 06 f7 f9 3d ff 22 1c 3d 33 c5 26 3e 96 21 d8 3c
       0.12205319 0.038119312 0.16286163 0.026383203
000030 4b 62 ef bd 4b ad be bc a7 57 2a bd 27 68 35 bd
       -0.1168867 -0.023275992 -0.041587498 -0.04428878
000040 5d 2e f1 bc bd dc de bd 09 27 11 be 4a 46 f0 3d
       -0.029441053 -0.10881946 -0.14175047 0.117321566
000050 62 ae 9d bd b3 31 3c 3e f9 d1 a0 3d 22 d0 cd bd
       -0.076992765 0.18378334 0.07852549 -0.10049464
000060 9b 2f 72 3e df eb ec bd de 38 0a be b7 04 d1 bb
       0.23650973 -0.11568426 -0.13498256 -0.006378736
000070 74 48 0a be 0b cf 10 3e 41 f9 f1 bc b6 95 71 3d
       -0.13504201 0.1414148 -0.029537799 0.058980666
000080 a4 44 ca 3c 70 94 3c 3e 26 cd 89 3d 3d 62 4b be
       0.024690934 0.18416 0.06728582 -0.19861694
000090 19 52 2e 3e 90 28 35 3d ff b2 b3 3d ab 78 e3 bd
       0.17023505 0.044228137 0.08774375 -0.11107
0000a0 1a d3 a8 3b 60 b3 a2 bd 8d 3d 55 3e 2f 48 81 3e
       0.0051521184 -0.07944369 0.20824261 0.25250384
0000b0 d9 65 25 3c 93 7f ef bd ae 84 ea 3d 96 eb 02 3e
       0.010095083 -0.11694255 0.11451088 0.12785181
0000c0 f4 8a 46 bd 6d bb 80 be 76 69 99 bd c7 43 f1 bd
       -0.04847236 -0.25142995 -0.07490818 -0.117805056
0000d0 3c ec 42 3e 5f 99 c2 3d d1 9f 5f bd 99 60 f5 bc
       0.19035429 0.095019095 -0.054595772 -0.029953288
0000e0 44 a0 d2 3d ae f8 fe bd 0a b9 24 3e 5a 49 2d bd
       0.102844745 -0.12449776 0.16086212 -0.04230628
0000f0 14 ba 36 3d f0 ea 47 3d c5 23 75 3e 8c 71 31 ba
       0.04461105 0.04880804 0.23939426 -0.0006768934
000100 b9 59 11 3e 56 cc 44 3c e0 f5 97 3d 69 5f ed bd
       0.14194383 0.012011608 0.07419944 -0.11590464
000110 7b 46 29 3d a0 06 6b bd f4 82 3e bc 65 f0 4a 3e
       0.04132698 -0.057379365 -0.011627901 0.19818266
000120 1f e5 77 3d 26 31 8e 3d 81 0a 4c bc e3 21 0b be
       0.06052124 0.06942968 -0.012453676 -0.13587146
000130 a6 4e a9 bd 12 f4 58 bd 59 e6 28 3e 24 ad e3 3d
       -0.08266954 -0.05296714 0.1649412 0.11117008
000140 38 9e b9 bd 32 c1 df bd f4 31 9d 3d d3 48 33 bc
       -0.09063381 -0.10925521 0.076755434 -0.010942656
000150 c3 29 69 bd 61 16 d2 bc 7b 15 b0 bd c8 65 45 3c
       -0.056924593 -0.025645437 -0.08597847 0.012048192
000160 27 46 0e be 4c 43 89 bc c3 53 e5 bc 89 83 94 bc
       -0.13893948 -0.016755722 -0.027994042 -0.018129127
000170 0e 03 58 3d c1 fa ae bd a6 35 96 3d 77 90 1e 3e
       0.05273729 -0.08543921 0.073344514 0.15484796
000180 e1 86 f6 bd ba be 73 be 09 0d 1b be 06 ce 47 bd
       -0.12037445 -0.23803225 -0.15141691 -0.048780464
000190 9a 3c a1 3d 94 ed 82 bc be 72 67 bd 14 e8 ee 3c
       0.07872887 -0.015982427 -0.05650591 0.029163398
0001a0 6e 34 e6 bc 2a c4 66 bd ab b5 43 3c da f9 05 3e
       -0.028101172 -0.05633942 0.0119451685 0.13083592
0001b0 00 75 53 3d 9b 87 ae 3c 7f ae 6d 3d 57 d0 a5 3d
       0.05162525 0.021304896 0.05802774 0.08096378
0001c0 e4 df b9 3c 9f 8c 6f bd 71 12 bf 3d 62 e5 b9 bc
       0.022689767 -0.058483716 0.09329689 -0.022692386
0001d0 f6 dc 15 bc 99 20 d8 bc 93 60 d3 bd 16 b6 cb 3d
       -0.0091469195 -0.026382731 -0.103211544 0.099468395
0001e0 9f da 0b 3e e8 4a b3 bd 98 b6 18 bd a9 b9 83 3c
       0.13657616 -0.087545216 -0.03728351 0.01607974
0001f0 ba 93 25 bd 7d fd c6 bc a3 ae 79 bd 2c 7a a1 3c
       -0.040424086 -0.024290795 -0.060957562 0.019711576
000200 34 51 05 3e 45 2d 1d 3d c6 19 0e 3e 12 ac 0e 3d
       0.13019258 0.03837325 0.1387702 0.034832068
000210 26 3f f3 3b 42 b8 a6 bd 9e 9c e8 bd 60 ff a2 3c
       0.0074232994 -0.08140613 -0.11357997 0.019897163
000220 3c ce e2 3d 27 6b c0 3a 58 92 9a 3d f5 d0 7b 3d
       0.11074492 0.0014680371 0.07547444 0.061478574
000230 d7 29 e8 3d b6 c6 f5 bc 33 ac a8 bd bd 84 bb bd
       0.11336105 -0.03000198 -0.082359694 -0.09156177
000240 c6 3c 90 3c 76 3c 3f bd 1b ce 13 3d 34 48 e7 3d
       0.017607104 -0.04668852 0.03608523 0.112930685
000250 43 79 c1 3d 63 3a b1 3d 5e 07 87 3b ea a1 d9 bd
       0.09446957 0.086537145 0.0041207513 -0.10626586
000260 16 25 a5 bc b2 a4 87 3d e5 79 5a bc 13 07 bd 3d
       -0.020159286 0.0662321 -0.013334726 0.09229865
000270 0e 28 ca bd f6 64 19 bd af d5 d4 3d 80 90 38 bd
       -0.09870921 -0.0374498 0.103923194 -0.04505968
000280 38 33 fa 3b 79 61 95 bc 21 e1 c9 bd 6b c3 ad bc
       0.0076355003 -0.018234955 -0.09857393 -0.021211347
000290 1a b7 44 bd 8e b3 62 bc e3 bf 92 bd 48 b6 d9 3d
       -0.04802618 -0.0138367545 -0.07165506 0.106304705
0002a0 a2 9a 55 bd 3b cb b8 3b 1f e0 92 3d b1 3d b6 3d
       -0.052149422 0.0056394613 0.07171654 0.088984855
0002b0 8f f1 27 bd 26 b9 e8 bb 3b d1 7a 3d 08 1d 84 3d
       -0.041001853 -0.0071021495 0.061234694 0.0645085
0002c0 22 bd a8 3d 96 33 0f bd 85 d8 c8 3c 3d e0 a4 3c
       0.08239199 -0.034961306 0.024517307 0.020126456
0002d0 cd bc 57 3d e6 55 7c bd 2f 52 14 3c 0e 83 a5 bd
       0.05267029 -0.061605357 0.009052797 -0.08081637
0002e0 87 af 76 3d af 5d a0 3d 2c 72 7b bd 75 5e b4 3d
       0.06022599 0.07830369 -0.06138818 0.08807079
0002f0 1a 21 f2 bd 7d 3b 3b 3d a9 e1 36 3d 30 2b 02 bd
       -0.1182272 0.04571103 0.0446488 -0.031779468
000300 ee 73 ac bd 62 da 91 3c 91 e2 7e bd da 82 48 3d
       -0.08420549 0.017804328 -0.06222779 0.048952915
000310 58 8d 87 bc 63 57 e2 3d 98 e4 48 bd 9e 74 13 bc
       -0.01654689 0.11051824 -0.04904613 -0.008999972
000320 13 f9 39 bd 7b d9 45 bd 7b a4 a3 3d 7d 1b 7f 3d
       -0.04540355 -0.04830311 0.079903565 0.062282074
000330 1c 3f f9 3c b9 8e b4 3d fb 0f f1 3d 7b b3 20 bd
       0.0304256 0.08816285 0.11770626 -0.039233666
000340 94 03 0a 3e ea 67 24 be 13 ac ce 3b b3 9d a3 bd
       0.13477927 -0.16055265 0.006307134 -0.07989063
000350 ea 3f 9b 3d 05 c1 34 3c ca 2d d5 3c 55 8d e5 bd
       0.0758055 0.011032348 0.02602281 -0.112085976
000360 5c f9 61 bc 3a 8c c6 3d c0 ff 8b 3d e8 6a 89 3c
       -0.013792362 0.09694715 0.0683589 0.01677461
000370 67 38 0c bd c4 7a 12 3d 7d 52 65 3d 74 fd 40 bc
       -0.034233477 0.03576161 0.05598687 -0.011779178
000380 ed 02 ba 3c 3a 7c 22 3d 4c b2 ca bd 69 f4 9a bd
       0.022706473 0.039669253 -0.09897289 -0.07566149
000390 77 f9 0f 3e bb 62 6b bd c3 a6 61 bd d8 3e 5a bd
       0.14060007 -0.057467204 -0.055090677 -0.05328259
0003a0 e4 05 e6 3c 64 46 ea bc e5 f7 9e bd 56 7c 26 3c
       0.02807898 -0.028598018 -0.07762126 0.01016148
0003b0 6a 03 76 bd 76 7a 15 bd 0c 28 19 3d c1 bb 7e bd
       -0.06006185 -0.03649374 0.037391707 -0.062190775
0003c0 4a 7f b5 bd 53 68 a0 3d d2 d1 c8 bd 18 81 ef bd
       -0.08862169 0.07832398 -0.09805645 -0.116945446
0003d0 e3 b4 c3 bd f3 75 e3 bc 39 a1 8e 3d 35 66 af 3d
       -0.09555986 -0.027766204 0.069643445 0.08564416
0003e0 cc bf da 3d a0 09 b4 bc ae 57 c2 3c 3c d5 03 3e
       0.106811136 -0.021977246 0.02372345 0.12874311
0003f0 b5 7c 0b bc d4 c2 5f 3d d0 98 a2 3d d4 43 11 3d
       -0.008513619 0.054629162 0.07939303 0.035465077

lstm.bias_ih_l0 f4 [400]
000000 b4 be b5 3d cd d5 75 3d 3d c4 cf 3d 2f c2 a8 3d
       0.08874264 0.06001835 0.10144851 0.082401626
000010 61 f7 5f 3d e2 36 03 3d 33 97 60 3d 94 14 19 3e
       0.05467928 0.032034762 0.054831695 0.14949256
000020 57 a0 19 3e b8 d7 6c bd 06 23 06 be a2 7a e1 bc
       0.15002571 -0.057822913 -0.13099298 -0.027524296
000030 76 53 db 3d 76 76 05 3d 0b 7a b3 3d 78 2d 2a 3b
       0.10709278 0.032583676 0.08763512 0.0025967043
000040 05 7b 00 3e 3d 46 ff 3b c7 77 12 3d 73 80 a1 3c
       0.12546928 0.0077903555 0.03575876 0.01971457
000050 fa 0c 11 3d 01 44 04 3e 45 47 45 3c 50 e6 d1 3d
       0.035412766 0.12916566 0.012040918 0.10249007
000060 a5 22 d7 3c 0b 35 b8 3d e1 47 07 3e 3c 40 b7 bd
       0.026261637 0.08994492 0.13211013 -0.089477986
000070 e5 7c 0f 3e fa 1e 71 bd 86 69 40 3c 0d d5 9e 3d
       0.14012487 -0.058867432 0.011743909 0.0775548
000080 83 5f c1 3d 53 4b 4e 3d b1 2c 1b 3d 1d e8 d9 bc
       0.094420455 0.050364804 0.037884418 -0.026599938
000090 43 db 7f 3d 15 bd ba 3d 93 61 83 3d d5 5d 0c 3e
       0.062464964 0.09118096 0.06415095 0.13707669
0000a0 b3 62 a1 bd 3b b4 95 bc 39 d9 4f 3d a4 8a c0 bb
       -0.078801535 -0.018274417 0.05074427 -0.0058759023
0000b0 37 65 9a 3d 22 96 de 3b 0c e2 24 3c 40 60 44 bd
       0.075388364 0.0067927996 0.010063659 -0.047943354
0000c0 b7 47 a0 3d 5a 1d 5d bd ba d8 10 3e 20 9c 37 bd
       0.078261785 -0.05398307 0.14145175 -0.044826627
0000d0 83 58 25 3a 99 1c 29 3d 16 6c 6e bd fb 91 e8 bc
       0.000630744 0.04128704 -0.058208548 -0.028389921
0000e0 76 79 d7 3d e4 18 b9 3d a9 0e b1 3d 11 b0 a9 bc
       0.10521214 0.09037951 0.08645374 -0.020713838
0000f0 c8 cc 07 bd 5e 49 91 3b c1 e0 7d 3d e5 11 5b bc
       -0.03315428 0.004433795 0.06198192 -0.013370966
000100 ee cf 3d 3e bb 42 b8 3d fa 63 30 3d 46 c2 60 3d
       0.1853635 0.08997103 0.043064095 0.054872774
000110 70 0c a7 3c 74 c7 f8 3d 49 b3 69 be 91 13 9b 3d
       0.020391673 0.12147418 -0.22822298 0.07572091
000120 f3 86 1d 3c 25 f0 2d be 5b 2f 31 3d 65 f3 85 3d
       0.009614694 -0.16986139 0.043258052 0.065405644
000130 a4 ba 90 bd f8 53 42 bc aa 72 97 bc a4 4f d8 3d
       -0.07066849 -0.01186084 -0.018487293 0.10562065
000140 5b df ea 3d 35 73 77 bc ac b5 09 3e 05 da 9a 3d
       0.11468383 -0.015103151 0.13448209 0.07561115
000150 59 2e 92 3d 41 0a 91 3d ef c6 87 3d 26 24 20 3d
       0.07137746 0.07082034 0.066297404 0.039096974
000160 d8 e6 a9 3d 5d 3c 1e ba db 57 cc bd 6b 6b 3c 3d
       0.08295983 -0.00060362165 -0.099776946 0.04600088
000170 2b 80 41 bd 0b 68 8a 3c 10 1b 3f bc f7 c5 c5 ba
       -0.04724137 0.016895315 -0.011664167 -0.0015088905
000180 22 b9 13 3d 0e 69 ce 3d 42 63 4b 3d 75 a7 da 3c
       0.03606523 0.10078631 0.049655207 0.026691178
000190 d2 f1 57 3d 65 7b 8a 3d 59 44 b1 3c 43 37 0c 3e
       0.052720852 0.06761817 0.021639036 0.13692956
0001a0 5e 80 82 bd 7c a8 d0 bc 8f 1c 85 3d d5 ed 2d bc
       -0.0637214 -0.025470965 0.06499588 -0.010615786
0001b0 69 1d b0 bd 8a 6f 7d bd 04 0f 0f 3e dd 2a 9c 3b
       -0.085993595 -0.06187395 0.13970572 0.004765852
0001c0 32 03 c6 3d 0d c2 da bc cf 49 b2 3d b2 83 97 3d
       0.09668578 -0.026703859 0.08705484 0.07398166
0001d0 bb be 8c bc 01 87 c3 3d 4e 6f 9c 3d 1e 38 a1 3c
       -0.017180791 0.09547234 0.07638417 0.01968008
0001e0 1b 88 4d 3d eb df 28 bd 52 8d 38 3b 41 8b 19 3e
       0.05017863 -0.04122917 0.0028160405 0.14994527
0001f0 fb f4 98 3b 9b 25 f5 3d 9a 4c ac 3d a9 0c 06 bd
       0.004667876 0.11970063 0.08413048 -0.032726917
000200 87 6a 12 bc f5 ac 07 3c 66 8d 0e 3d ad fe 8a bc
       -0.008936531 0.008280982 0.034802817 -0.016967142
000210 16 d5 99 bd fb 3f 4a bc f2 2b 81 3d 20 76 6f 3d
       -0.07511346 -0.012344356 0.0630721 0.058462262
000220 79 ae e2 3d ca 71 bb bc d1 cc e3 bc c3 9d fe 3d
       0.11068434 -0.022881407 -0.027807625 0.124324344
000230 26 05 55 bd 15 8e 69 3d c3 77 ac bd 6e b3 28 bd
       -0.052006863 0.057020266 -0.0842128 -0.041186742
000240 21 43 92 3d 8a 55 5a bd 8b ea 56 3d 2f 7b 25 bd
       0.0714171 -0.053304233 0.05246977 -0.04040068
000250 84 2a 81 3d cd a7 10 bd a7 33 0a 3d 3e 46 3d bd
       0.06306937 -0.035316277 0.033740666 -0.046209566
000260 03 a9 0f 3c d9 ab 36 bd 34 83 8a 3d b4 65 99 3d
       0.008768323 -0.04459748 0.06763306 0.074901015
000270 8f 8b a0 bc 77 8a ce 3d 3d 9e e3 3d 9c 0b a8 3d
       -0.019597797 0.10085004 0.11114166 0.08205339
000280 d8 a5 98 bd f5 72 83 bd c9 81 39 3d f5 d7 03 bd
       -0.07453507 -0.06418411 0.04528979 -0.032188375
000290 b1 c1 eb 3d c9 0e 04 3e 65 a4 9e 3d 7a b7 a1 3d
       0.11511553 0.12896265 0.077461995 0.078963235
0002a0 08 6e 57 bd 90 3b af 3d 4e f3 cd 3c 0d 02 03 be
       -0.05259517 0.085562825 0.02514043 -0.12793751
0002b0 18 c4 d3 3d 94 30 33 3d d8 a5 f0 bc 11 2c 93 3b
       0.10340136 0.0437475 -0.029375955 0.004491337
0002c0 c6 4c 04 3e cd 20 0b 3e bc 4e 9b bd 63 ec 8e 3d
       0.12919912 0.13586731 -0.07583377 0.06978681
0002d0 4f 27 b2 bb b6 57 f0 3d f4 dd 8a 3d fb 08 10 3d
       -0.005436815 0.117354795 0.067806154 0.035164814
0002e0 03 f7 c0 3c fa c4 a5 3a ac 9a 1f 3c 42 4e b9 3c
       0.023555284 0.0012647205 0.0097414665 0.022620324
0002f0 d1 6e 47 3c 3b b1 3c bc 0f bc 17 3d 5b 7b fd 3d
       0.012172417 -0.011516864 0.03704458 0.12377044
000300 3d dc 0d b9 4b 4a e8 bc f5 8e 9a 3c 08 f9 5e bd
       -0.00013528853 -0.028355738 0.018866995 -0.054436713
000310 d6 bd 1a 3d 87 e3 d3 3d 91 3a 02 bb b7 36 2f 3d
       0.037778698 0.10346132 -0.0019871334 0.04277679
000320 9b 10 2f bd 83 94 cd 3d e8 d8 63 3e 58 47 78 be
       -0.042740446 0.10038092 0.22250712 -0.24245965
000330 c9 0c e5 3d e5 72 25 bd 99 94 4e bd d0 70 31 3e
       0.11184079 -0.040392775 -0.050434683 0.17328191
000340 68 6d 46 bd 01 a6 da 3c 20 13 09 3e fe bd 01 3e
       -0.04844418 0.026690485 0.13386202 0.12670133
000350 52 be 37 bd 70 17 e3 3c aa 4a 89 3d cb 15 a2 3d
       -0.044859238 0.027721137 0.06703694 0.07914313
000360 49 4e bf bd 4a f5 b6 bd bc f8 5b be 0b df 99 3c
       -0.093411036 -0.08933504 -0.21481603 0.018783113
000370 b2 02 b6 3d 58 1f bf 3d a1 e1 cb bd 9b 4a aa 3d
       0.08887233 0.0933215 -0.09955145 0.08315011
000380 ea 2b f6 bc c7 6d db 3d c0 20 f1 b7 05 0c 35 3d
       -0.030050237 0.10714298 -2.874469e-05 0.044200916
000390 05 d1 0c 3e 4c 46 72 bd d1 72 9f bc b8 3c 00 3e
       0.1375161 -0.05914907 -0.019463928 0.12523162
0003a0 0e 4a 5e 3d 66 a5 c4 3c f7 ab 28 be 42 0a 50 3d
       0.054269843 0.02400465 -0.1647185 0.050791033
0003b0 32 b3 8a 3d 7f 2f fe bd bf ef 44 bc 1e f7 25 3e
       0.0677246 -0.12411403 -0.012020051 0.16207549
0003c0 d4 e2 9d 3d f5 89 12 3e 64 55 2c be e5 c8 cb 3d
       0.0770928 0.14310439 -0.16829449 0.09950427
0003d0 bf 9b 1c be 54 cd b1 3d 9e 3c a7 bd 57 1c cb 3d
       -0.15293787 0.08681741 -0.08165859 0.09917515
0003e0 19 67 8c 3d d4 5d 2e 3d 0c 3e d2 3d ee d3 99 bd
       0.06855602 0.04256995 0.10265741 -0.075111255
0003f0 91 86 d3 3d 7c b2 14 3e 7c 4c 85 bd d8 eb 9c 3c
       0.10328401 0.14521211 -0.06508729 0.019155428

lstm.bias_hh_l0 f4 [400]
000000 87 38 54 3d 03 ce de 3c 04 27 7d 3a 8b 98 bd 3d
       0.05181172 0.027197843 0.0009656998 0.09257611
000010 28 5c d5 3d bb b1 0b 3e 50 36 80 bc f7 aa 4e 3d
       0.10417968 0.13642018 -0.015650898 0.050456014
000020 da 14 50 bc 90 94 ed bc 24 62 60 be 04 21 9e bd
       -0.012700284 -0.029001504 -0.21912438 -0.07721141
000030 12 63 06 3e f1 5a b5 bd 12 5a 8e 3d 7f 87 ca 3d
       0.1312373 -0.08855236 0.06950773 0.09889125
000040 f6 47 82 3d 95 cf bb 3d a4 b1 9d 3b 3c d3 c7 3b
       0.06361382 0.091704525 0.004812436 0.006098179
000050 a9 02 35 3d 6b 07 28 bd 65 b5 08 3d f6 34 da bb
       0.04419199 -0.0410227 0.033376116 -0.0066591455
000060 43 1d fd 3d a8 de c7 3c 62 84 a6 bb c2 c7 02 bd
       0.12359097 0.024398163 -0.005081699 -0.031928785
000070 cb 33 32 3e 46 ae a7 bd 0e b9 ea bb a1 12 ba 3d
       0.1740257 -0.08187537 -0.0071631735 0.090855844
000080 62 74 e0 3d 5c f3 30 3b b1 3f 3f 3e f1 a7 c5 bc
       0.10959698 0.0027000522 0.1867664 -0.024127932
000090 a4 fe a1 bc 31 a1 64 bc db 3a c5 bc 09 e8 5c 3d
       -0.019774742 -0.013954447 -0.024075916 0.053932223
0000a0 80 cd 56 bd 28 ec 31 ba ad e3 cd 3d 66 92 96 3d
       -0.052442074 -0.0006787204 0.10053191 0.07352142
0000b0 d7 4b ae 3d a6 73 ba 3d a8 5b 24 3e 04 17 6f 3d
       0.08510559 0.091040894 0.16050589 0.05837156
0000c0 26 af 19 3e 15 e6 b2 3d 6f 11 81 3d 0a 47 72 3c
       0.1500822 0.08735291 0.06302153 0.014787445
0000d0 ff 15 19 3e c2 1b d8 3d 9b 96 1e 3d 11 32 ee 3d
       0.14949797 0.105521694 0.038717847 0.11630643
0000e0 29 31 cb 3d 39 a8 f3 3d fa c7 85 bc 4c 57 a1 3d
       0.09921486 0.1189732 -0.016330708 0.07877979
0000f0 13 5c 63 3c 7a 19 43 bd f2 73 ef 3d 0b 4b ea 3d
       0.013876933 -0.04763172 0.11692037 0.114400946
000100 4a 85 37 3e 58 49 6f 3d 6a ab b8 3d 17 46 66 3d
       0.1792194 0.058419555 0.0901707 0.056219187
000110 c7 9f 81 bc 37 36 4e 3b 9b 05 4e be 67 ae f7 3c
       -0.015823258 0.003146542 -0.20119326 0.030234529
000120 72 f2 98 bd 92 b2 14 be 4a 21 22 bd 28 40 5e 3d
       -0.07468118 -0.14521244 -0.03958253 0.054260403
000130 b3 ca b6 3d 72 76 f4 bd 1f df 59 bd 89 c6 a6 3d
       0.089253806 -0.11936654 -0.0531913 0.08143336
000140 fd 7a a0 3b 41 28 ae 3d 29 0c dd 3d 2b b6 50 3c
       0.004897474 0.085037716 0.10793335 0.012738745
000150 6f 06 f4 bb 4a 97 59 bc ff 18 ca 3d 1e 8a 05 3e
       -0.007447056 -0.013280699 0.09868049 0.13040969
000160 18 2a d6 bb a3 60 1f bd d1 39 bb bc 12 a8 05 3e
       -0.0065357797 -0.03891052 -0.022854717 0.13052395
000170 4b 78 e1 3b d4 b5 2f 3d a1 e8 c1 3d 6e 97 93 3d
       0.006880795 0.042898014 0.094681986 0.07206617
000180 e3 d9 f2 3d 70 da 7b bc 88 86 f7 bd 25 0b 79 bc
       0.11857965 -0.015371904 -0.12086207 -0.015200411
000190 6a 14 7a 3d b1 e7 b8 bd 01 0d cf 3d 34 0f 29 3e
       0.061054625 -0.09028567 0.10109902 0.16509706
0001a0 34 cd 60 3d fc 05 bb 3b d1 37 12 3d b7 ad 23 bd
       0.054883197 0.0057075005 0.035697762 -0.03996059
0001b0 a9 3b 39 3c d1 34 a1 3d 85 f6 63 3e 7f db 08 bd
       0.011305728 0.07871402 0.22262008 -0.033412453
0001c0 de 7c 06 3d 4c 9b e3 ba 9b 32 c9 3d 1b c4 b4 3d
       0.032833926 -0.0017365008 0.09824105 0.08826467
0001d0 36 9c 75 3d bd f8 3e 3d bf 24 44 bc a1 c3 df bd
       0.059963427 0.046623934 -0.011971652 -0.10925985
0001e0 fd f4 b1 3d fe 4d 0b bc 03 92 0b bc 9e 3b 80 3c
       0.08689306 -0.0085024815 -0.008518699 0.015653428
0001f0 d1 05 29 bd ba e7 0d bd e1 48 e5 3d 97 a2 e6 3c
       -0.041265313 -0.03464482 0.11195541 0.0281537
000200 fe de 9f bd c0 7c ac 3d c1 d3 fc bd 3e 35 91 3d
       -0.07806204 0.08422232 -0.12345076 0.07090233
000210 bb ad 6d bd 44 c1 b5 bd d1 e8 95 3d c2 39 7d 3d
       -0.05802701 -0.08874753 0.07319797 0.06182266
000220 12 1b b7 3d b9 00 b1 3d 1b 2e 4f bd bc 0c 47 3c
       0.0894071 0.08642716 -0.05058108 0.012149032
000230 2d 71 93 3d 3c a6 cd 3d 32 6e 86 bd 6f 3d d3 3c
       0.07199321 0.10041472 -0.06563987 0.02578613
000240 b5 06 47 3d e9 5a a3 bd 73 9b 0c 3e b9 7e 3f bd
       0.04859038 -0.07976324 0.13731174 -0.04675171
000250 6d fa 98 3c 6e 25 52 bb 3e b9 6e 3c 7f a6 ca bc
       0.0186741 -0.0032065767 0.014570532 -0.024737595
000260 cb 50 52 3c e9 2b f5 bc 51 14 24 bd f6 e7 e5 3d
       0.012836645 -0.029928165 -0.040058438 0.11225884
000270 91 87 41 3d 9b 4b a4 bc de be 24 3e 0c a3 42 3c
       0.047248427 -0.020055583 0.16088435 0.011879694
000280 a9 98 32 3d 0d 60 39 bd f7 a7 6b 3d 46 72 14 bc
       0.04360262 -0.045257617 0.05753323 -0.009060448
000290 10 f7 9e 3d a5 8b f1 3d c7 26 ed bc 40 ac c1 bc
       0.07761967 0.11794213 -0.028949155 -0.023641706
0002a0 33 6a 1a 3d 18 8b 9b 3d 14 51 dd 3d c4 a0 e6 3a
       0.037698936 0.075948894 0.1080648 0.0017595519
0002b0 54 c2 fb 3d 5f d8 f8 bc c1 fe ca 3d 1a 6d 19 3c
       0.122929245 -0.030376611 0.09911872 0.009364391
0002c0 e6 0f 1a 3e 03 0c 31 3e 81 61 9d 3c ab a1 6d bb
       0.15045127 0.17289738 0.019211533 -0.0036259692
0002d0 5d 04 2d 3d 26 3e 04 3e ac f2 b1 bd 23 c5 d5 3d
       0.04224049 0.12914333 -0.08688864 0.104379915
0002e0 e1 3f e7 3d 06 44 25 bd c2 15 95 3d e4 97 81 3d
       0.11291481 -0.040348075 0.072795406 0.06327799
0002f0 be f2 96 bc 20 f4 3b bd 72 6b 58 3d 2d 83 c7 3c
       -0.018426295 -0.045887113 0.052836843 0.024354542
000300 1c 55 d9 bc ed 99 d5 3d 24 65 04 3c e0 bb ba 3d
       -0.026529841 0.1042975 0.008080754 0.091178656
000310 98 66 6b 3d 8c f3 44 3d b2 d6 21 3e 30 b1 bd 3c
       0.057470888 0.048083827 0.15804556 0.023155779
000320 e1 80 2d be 92 9f a9 3d 90 39 8f 3d 0c 4e 7c be
       -0.16943695 0.08282389 0.06993401 -0.24639148
000330 0b c0 65 3d 19 30 be bd f9 2e 53 3c 3c 55 81 3e
       0.05609135 -0.09286518 0.012889617 0.2526034
000340 bd 12 19 be b6 6b a7 3c 37 02 35 3e 4b da 4f 3d
       -0.14948554 0.020437103 0.17676626 0.05074529
000350 f8 94 05 bd 3e cb 7f bd ee 0b 2d 3c 98 8d a0 bd
       -0.03261277 -0.062449686 0.010561926 -0.07839507
000360 8d bc 49 bd fe 8d 6d bc 58 9b e9 bd cf aa 3c 3d
       -0.04925208 -0.014499186 -0.114065826 0.046061333
000370 f1 fd 2c 3e 5f dd 6a 3d 6c 78 b7 bb 8b 61 77 bd
       0.16893746 0.057340022 -0.005599072 -0.06039576
000380 53 8f 66 bd 19 0e a9 3c 79 c9 86 bd cf 4d c6 bc
       -0.05628903 0.020636605 -0.065813966 -0.024207024
000390 06 6e 45 3d c9 fc f4 bd 04 e4 2f 3e ea 7c fa 3d
       0.04820063 -0.119622774 0.17176825 0.12230857
0003a0 d9 c9 dd 3d f8 fe 49 3d e3 d4 8c bd 9e 9a 66 3c
       0.10829515 0.049315423 -0.068765424 0.01407495
0003b0 c3 ce b2 bb ed df 82 3d fb 27 80 bd 04 51 d9 3b
       -0.005456777 0.06390367 -0.06257626 0.0066319723
0003c0 52 41 82 3d ad 02 a1 3d 07 39 c8 bd 31 ec 6b 3c
       0.06360115 0.078618385 -0.09776502 0.014399574
0003d0 a2 4d ad bb a0 33 b2 bd 2d f5 00 be 44 fe e0 3d
       -0.0052887956 -0.08701253 -0.12593527 0.10985997
0003e0 c2 88 35 3d ee e9 29 3e 53 90 19 3d bb 01 57 3d
       0.044319876 0.16593143 0.037491154 0.052491885
0003f0 96 7e ec 3d 34 d6 4f 3d a8 a3 26 be 6a e0 2b 3a
       0.11547582 0.05074139 -0.16273367 0.00065565726

hidden2tag.weight f4 [4, 100]
000000 fb fa 9d 3e 5f 9e fe be 49 f7 a0 be 90 5b ab bd
       0.30855545 -0.49730203 -0.31438664 -0.083670735
000010 37 db 50 bd b1 73 87 be d5 4e cf be e8 2b 5b be
       -0.05099031 -0.26455453 -0.40489832 -0.21403468
000020 db 69 2b be 8a 0f ff bd 96 f0 7e bf e6 73 8d bd
       -0.167396 -0.12454136 -0.99585855 -0.069068715
000030 b5 33 87 3d 2a 6a 53 3e 3a 62 ec 3b 90 33 60 be
       0.06601659 0.20645967 0.007213858 -0.2189467
000040 98 a7 e7 3d 59 bd 1b 3e 86 a7 93 bd 5a 4f 39 bb
       0.11311263 0.15208949 -0.07209687 -0.0028276057
000050 94 e7 8a be 1f 22 ad be de 9c 95 bd 47 35 e3 3e
       -0.27129805 -0.33815095 -0.07305311 0.44376585
000060 5c 51 a1 bd 93 0c 1b be f3 4b 7e 3d 3d 71 9e be
       -0.07876846 -0.15141515 0.06208415 -0.3094577
000070 69 a8 08 bf ff da a0 3e d4 1e a0 be 72 0f 1e be
       -0.53381974 0.3141708 -0.3127352 -0.1543558
000080 f2 c7 b6 3d 26 a4 fa bb b7 57 87 3d db f9 6a be
       0.08924855 -0.0076489625 0.06608527 -0.22946875
000090 d2 f9 ab 3e cd 0f 6f 3e df c7 e2 3d 33 f6 53 bd
       0.33589035 0.23345871 0.11073279 -0.051748466
0000a0 d6 18 bc bd 00 0e b2 bd 71 6a a3 3e 4c bf 80 3e
       -0.091844246 -0.086940765 0.31917146 0.25145948
0000b0 ab 25 2b 3e 33 6d 0c 3d 17 db cd 3e ac 09 8f bd
       0.16713588 0.034283828 0.40206215 -0.06984267
0000c0 72 fc 25 bf 2c e4 a5 3e 62 75 22 be da 06 ad bc
       -0.64838326 0.32400644 -0.1586509 -0.021121431
0000d0 c9 9b 51 bd d3 79 9a be 7c dd c5 3e 2f 7d 53 be
       -0.05117396 -0.3017107 0.38645542 -0.20653223
0000e0 46 c6 3c 3d 2b 51 c8 be 48 5b a9 3e 46 38 f1 bb
       0.046087526 -0.39124426 0.33077455 -0.0073614446
0000f0 8c d3 62 bc 3e 84 84 3e a0 6a 14 3e ad 2f 68 3e
       -0.013844382 0.25882143 0.14493799 0.22674437
000100 f7 ef 9e 3e c6 67 11 bd c8 77 26 be f4 8f 08 be
       0.31042454 -0.035499357 -0.1625663 -0.13336164
000110 5a 6e bb 3d 2b ea 8b 3e 73 3c 41 be 45 15 79 3e
       0.09151907 0.27327093 -0.18870716 0.2432452
000120 3e d8 9a bd 9f 75 0b 3f e2 30 8a be 5b 99 93 be
       -0.07560776 0.5447635 -0.2699042 -0.28827938
000130 7e d6 a1 be 27 7e ac bd d9 e8 60 3e 3f 52 2f be
       -0.31608957 -0.08422499 0.21963824 -0.17121218
000140 e4 60 82 bd 16 33 b1 bd b6 c0 ed 3c df ab 99 3d
       -0.06366137 -0.08652322 0.029022556 0.07503485
000150 83 4a 90 be 1b 07 6a be ab ad 84 be fe b8 86 3d
       -0.28181848 -0.22854273 -0.25913748 0.06578253
000160 6e 5d 4f 3e fc d3 ab 3d c8 b6 27 3e 16 85 ca bd
       0.20250484 0.08390042 0.1637832 -0.098886654
000170 b6 12 83 3d e3 60 14 be 07 a4 0a 3f 32 b4 eb 3c
       0.06400053 -0.14490084 0.54156536 0.028772447
000180 8c a1 49 3e bb 7d bd bd 7d 4b 60 3e e1 a1 bd 3e
       0.19690531 -0.09252497 0.21903796 0.37037566
000190 59 32 40 3e cb 74 6f be 4b 05 e9 bd 1a 43 1f 3f
       0.18769206 -0.23384397 -0.11377963 0.62211764
0001a0 ff 66 57 be 20 84 4c 3e 06 42 89 3d 95 36 07 bf
       -0.21035384 0.19972277 0.06702046 -0.5281766
0001b0 46 6e c5 3d f7 f2 5b 3e 29 34 8b 3e 7f 92 33 3c
       0.096401736 0.21479402 0.27188233 0.01096022
0001c0 d7 b2 1a 3e 97 59 8b 3c f5 b9 93 bd d4 31 02 3c
       0.15107284 0.017010493 -0.07213203 0.00794645
0001d0 be ec 58 bd e9 eb 40 3e 3b d5 99 3e f1 2a 85 bc
       -0.05296015 0.18839993 0.30045494 -0.016255828
0001e0 6f 82 db be df ee 06 be 69 26 75 bd fa 0b ef bd
       -0.4287295 -0.1317706 -0.059851084 -0.11672206
0001f0 99 f0 0e be 2f 34 1f be 07 b4 00 be b5 9f 3a be
       -0.13958968 -0.1554725 -0.12568675 -0.18224986
000200 5c 82 d5 be 45 2e 4d 3e 22 9d 77 be 49 6d 2e 3d
       -0.4170102 0.20037182 -0.24181035 0.04258469
000210 26 5d 04 3c 4c c4 30 be 91 d9 b5 3e d2 04 e1 3d
       0.008078849 -0.17262381 0.35517552 0.109872475
000220 ca f8 66 be 0f 4d c7 3e 3b 6f 5e 3d a3 03 00 3e
       -0.22555843 0.3892598 0.054305296 0.12501387
000230 39 71 16 be f1 0a 8e 3a be 34 af 3d 7f 03 f5 3d
       -0.14691629 0.0010837001 0.08554982 0.119635575
000240 cc 2d 8e 3d 6a 7e 84 bc 96 87 f1 3e ec aa 95 bd
       0.06942329 -0.01617356 0.47173756 -0.073079914
000250 3b 4e 9d 3c a1 95 94 be 1a 11 ab 3d 48 41 1f 3e
       0.019202342 -0.29020408 0.08352871 0.15552247
000260 20 a4 29 be fa d1 10 be 56 9c 7b be c8 e9 9f 3e
       -0.16566515 -0.141426 -0.24571356 0.31233048
000270 e4 b7 05 3e e1 4b 61 be 86 b6 a6 be da 21 62 be
       0.1305843 -0.22001602 -0.3256113 -0.22083226
000280 39 c1 48 be 95 9f f6 bb d4 14 10 3f 81 2b 9b 3e
       -0.19604959 -0.007526348 0.5628178 0.30306628
000290 2f 76 03 bc 73 1e 02 3e ab 63 85 3c 58 28 91 be
       -0.008023783 0.12706928 0.016282877 -0.28351092
0002a0 08 16 a8 bc 7e 7b ee 3d ae 8c ae be 20 3f d2 3e
       -0.020518318 0.11644648 -0.34091705 0.41063786
0002b0 d0 83 01 3e 2b 9e f7 be 1c 90 82 3d 8c 1e b2 3e
       0.12647939 -0.4836286 0.06375143 0.3478893
0002c0 41 56 6e be 94 b1 98 be d8 72 c6 3e 45 ce 2d 3e
       -0.23275091 -0.2982298 0.38759494 0.16973217
0002d0 3f 7b 19 3d 36 7e 6f be 75 33 a6 3e cb 85 51 3d
       0.037471052 -0.2338799 0.32461134 0.051152986
0002e0 0a eb a5 3e f1 78 99 be ab d6 9b bb b5 a9 90 bd
       0.32405883 -0.29975083 -0.004755815 -0.07063619
0002f0 d7 a5 b3 3d fb 15 3a 3e 84 86 e7 3b 40 b9 5b be
       0.08771866 0.18172447 0.007065596 -0.21457386
000300 92 ba 1d be fa 2e 42 3e 59 d0 e6 be e8 37 65 be
       -0.15403202 0.18963233 -0.45080832 -0.22384608
000310 46 f8 0b 3e b7 74 1b bf b5 3e 31 be 1e 49 23 3d
       0.13668928 -0.6072497 -0.17309077 0.03986465
000320 58 c9 38 be 62 cc 41 be 40 a3 0b be 4d af 6d be
       -0.18045557 -0.18925622 -0.13636494 -0.23211403
000330 49 fd 3b be 88 0a 2b 3f 5e 93 6e 3d 7b 0e b9 be
       -0.1835834 0.66812944 0.05824601 -0.3614386
000340 dd dc 3f bd 3f f5 1b bd 21 3f 05 3f 9c 1e 85 be
       -0.04684149 -0.03807568 0.5204945 -0.25999916
000350 3a 1a 81 3d 33 c4 8a 3d fc 2b 50 bf ff 52 00 3e
       0.063038304 0.06775703 -0.81317115 0.1253166
000360 8b 28 e0 3d b1 0c a6 3d ec 37 47 be dd ae 0f be
       0.10945233 0.081078894 -0.19454926 -0.14031549
000370 ed 9a 5c 3b d7 72 c2 be 5c 5e a7 3e 7d 30 b4 be
       0.003366168 -0.3797824 0.32689178 -0.35193244
000380 22 11 8b 3e e8 10 d1 3d a1 29 2c 3e 45 73 df bd
       0.2716151 0.10208303 0.16812755 -0.10910658
000390 00 4a 07 be c1 4b c7 be ee b3 90 39 6e dd 34 be
       -0.13211823 -0.38924983 0.00027599878 -0.17662594
0003a0 f6 a8 54 be e7 38 93 3d ce 62 6a 3e f3 a0 5f be
       -0.20767578 0.07188588 0.22889253 -0.21838741
0003b0 49 e5 96 be 9a 2d d1 3e 12 e6 87 be 63 3c 16 bf
       -0.29471806 0.40855104 -0.26542717 -0.5868589
0003c0 54 40 9c bd de 2e 69 be f4 f3 bc 3e 43 d3 1f 3e
       -0.07629457 -0.22771785 0.3690487 0.15607934
0003d0 4e b4 88 bd 2b b2 a4 be 46 95 b5 3e a9 fc 4c bd
       -0.066750154 -0.3216718 0.3546545 -0.050045643
0003e0 0f ad 5a bd cc cc ce bd e4 31 e7 3a 5f 00 6b bc
       -0.053387698 -0.10097656 0.001763877 -0.01434335
0003f0 2d b1 34 3e f8 32 08 bf ea 49 d1 bd 89 09 94 be
       0.17645712 -0.5320277 -0.10219176 -0.28913525

hidden2tag.bias f4 [4]
000000 8b d0 53 bf da 02 3e bf 9f a0 97 bf 54 2c 32 40
       -0.82740086 -0.742231 -1.1845893 2.7839556
